wandb_version: 1

model:
  desc: null
  value: "TL(\n  (classifier_head): RobertaClassificationHead(\n    (dense): Linear(in_features=768,\
    \ out_features=768, bias=True)\n    (dropout): Dropout(p=0.1, inplace=False)\n\
    \    (out_proj): Linear(in_features=768, out_features=2, bias=True)\n    (activation_fn):\
    \ ReLU()\n  )\n  (model): RobertaModel(\n    (encoder): RobertaEncoder(\n    \
    \  (transformer): TransformerEncoder(\n        (token_embedding): Embedding(250002,\
    \ 768, padding_idx=1)\n        (layers): TransformerEncoder(\n          (layers):\
    \ ModuleList(\n            (0-11): 12 x TransformerEncoderLayer(\n           \
    \   (self_attn): MultiheadAttention(\n                (out_proj): NonDynamicallyQuantizableLinear(in_features=768,\
    \ out_features=768, bias=True)\n              )\n              (linear1): Linear(in_features=768,\
    \ out_features=3072, bias=True)\n              (dropout): Dropout(p=0.1, inplace=False)\n\
    \              (linear2): Linear(in_features=3072, out_features=768, bias=True)\n\
    \              (norm1): LayerNorm((768,), eps=1e-05, elementwise_affine=True)\n\
    \              (norm2): LayerNorm((768,), eps=1e-05, elementwise_affine=True)\n\
    \              (dropout1): Dropout(p=0.1, inplace=False)\n              (dropout2):\
    \ Dropout(p=0.1, inplace=False)\n            )\n          )\n        )\n     \
    \   (positional_embedding): PositionalEmbedding(\n          (embedding): Embedding(514,\
    \ 768, padding_idx=1)\n        )\n        (embedding_layer_norm): LayerNorm((768,),\
    \ eps=1e-05, elementwise_affine=True)\n        (dropout): Dropout(p=0.1, inplace=False)\n\
    \      )\n    )\n    (head): RobertaClassificationHead(\n      (dense): Linear(in_features=768,\
    \ out_features=768, bias=True)\n      (dropout): Dropout(p=0.1, inplace=False)\n\
    \      (out_proj): Linear(in_features=768, out_features=2, bias=True)\n      (activation_fn):\
    \ ReLU()\n    )\n  )\n)"
criterion:
  desc: null
  value: CrossEntropyLoss()
optimizer:
  desc: null
  value: "AdamW (\nParameter Group 0\n    amsgrad: False\n    betas: (0.9, 0.999)\n\
    \    capturable: False\n    differentiable: False\n    eps: 1e-08\n    foreach:\
    \ None\n    fused: None\n    lr: 1e-05\n    maximize: False\n    weight_decay:\
…
